mnist_model.pth (torch, 440176 bytes, 6 tensors)

fc1.weight f4 [128, 784]
00000000: 30b2 a2bc 330c f53c 342d c93c 0f9a 503c
00000010: f53d 003d 3358 cbba df62 823b 99f5 83bc
00000020: 72c7 2dbc 9264 c3bc 6401 2dbc e837 f23c
00000030: 8861 e4bb c0ac b9bc eab1 bd3b 8dc7 c33c
00000040: 201e cabc 0f8e ce3c 84b5 033d c859 8e3a
00000050: 329d c63b 4ea9 04bd 2687 173c 466f f63b
00000060: 6b9a 983c bfbc 003c 5b70 e0bc 2840 c83c
00000070: 6474 e63c a3bf 81bb fb91 6cbc 2dac b3bc
00000080: 0c2a e0bc 4790 8f3b 7c70 96bc 34bd e73b
00000090: 086e 983b 1516 c3bc d2b0 88bc 81e1 c2b9
000000a0: f559 df3c f3c7 ce3c 2441 e0bc 197a 10bd
000000b0: ca23 c13c e256 27bb c302 c73b 242a 9fbc
000000c0: c15d a43c d0e3 953b b4bb 82bc 6f1c 033c
000000d0: ab11 2a3c 8711 c8bb 11cc 14bd a816 e4bc
000000e0: 2e5b 01bd 246d a8bc 9079 2bbc 58f5 acba
000000f0: 6cdc 6a3c 39bf db3b aece 32bc db1a abbc
00000100: 2b15 753c 734e 65bc 31fb 1fbd 0842 1dbd
00000110: 267c 12bd ec61 3fbc 259e 11bd 3005 06bd
00000120: 878d c2bb 7bad 80bc 2fd0 0fbc 6071 bdbc
00000130: 4c9f 94bc 7940 ee3b 69a0 50bc 03ac a8bc
00000140: 9a78 bf3b 11a9 11bd 7d40 9ab9 980d f3bc
00000150: e2b0 333c d378 eebc f0cb 96bc ba1a 9e3c
00000160: c2a7 1d3c 9bb6 aa3c e74e babb e648 d7bc
00000170: 9056 9d3a 7d8d 10bc 004b 19bd f549 8a3c
00000180: 2c19 03bd 5195 233d 146a 183d 2c89 5f3c
00000190: 811a 39bc 8470 56bb 6185 a23c 132c f33b
000001a0: f9b1 4f3b e60e 133b 0f0a 7c3c e5c1 bdbc
000001b0: 7df4 86bc df1f 05bd 99a3 c8bb 3f43 263a
000001c0: 78fc 10bd a555 5a3c 91f5 54bc 358a 92bc
000001d0: 7548 083b 3a2a 8a3c bd69 ffbb d5a0 55bd
000001e0: 2206 50bc 6d45 b53b bfeb 84bc ad55 6e3c
000001f0: 4404 90bc e303 a33b 8da2 353b b319 d93c
00000200: c401 5a3d 7f3f c33b 6ab6 5e3d 40b9 673c
00000210: de4c 123d dac0 cc3c c813 193d 24c0 cebc
00000220: 4133 563c ae93 063b 15c5 193c 3bb7 063c
00000230: 5dfe 223c b48e 79bc ebc4 12bd 674c f6bc
00000240: e5fb 23bd c741 ddbc 13a7 2abd dd42 16bc
00000250: 2ed1 90bc f20b 833c 1f07 ab3b 74d1 093d
00000260: d8f9 36bc ebba 81bc b590 333b b6b0 733c
00000270: 846f 113c a07e 163d ddaa 893d c863 b3bc
00000280: c7b9 fabc 08cd 5fbc 7f45 a73c a95c ae3c
00000290: da65 883c 3931 a7bc e9bf c63c 7ee5 9cbc
000002a0: 5e3f 803b 7502 79ba 2dcc afbc 1528 a0bc
000002b0: 5525 09bc e542 cd3c 949f 9abc 485c 593c
000002c0: a3fc 193d 399f 523c a844 9cbc a6da 233c
000002d0: d93b b83b 071a 173d 5f4f 713d da4c 853d
000002e0: 44c5 c23c 2ba3 84bc 9635 3bbc 60df 06bd
000002f0: 17f8 7dbc 1df8 0abd 1ffc 52bd 89b1 6d3c
00000300: db4a 25bd ab01 ab3c 9b70 053d 2412 093c
00000310: 69be cf3c 167b 313c 8b40 e4bc f916 113d
00000320: 5975 9abb cf24 2bbd 196c 003d 6564 82bb
00000330: 2654 c3bc e17d eb3c 551b ed3c 57a4 843d
00000340: b017 db3c a59c 0738 160e ecbc c0da 1f3c
00000350: 4f7d a93b 3c7f c9ba 11c8 fdbc f5a2 c2bc
00000360: cf34 14bd 71ca a5bc e863 9bbd b304 88bd
00000370: 7031 453c 9239 f3bc a9a6 21bc cbde 5e3c
00000380: 6914 b5bc acce 00bd 6c6a 0e3d 9262 a13c
00000390: 2c64 e1bc e55d e03c 4871 383d d861 673d
000003a0: 5ec7 133d 737d 833d fde1 793d 62fe f73c
000003b0: e3d9 443b 7a70 02bd 69a4 563c d299 913c
000003c0: b58f c73c 680f 31bd 5296 81bc 1d14 1fbd
000003d0: 27cb 64bd aeb8 58bb 7db6 83bc d7a2 06ba
000003e0: 8f78 a03c 2f12 8d3c e3c0 47bb cf99 ce3c
000003f0: 12c7 6fbc 1486 d5bc d334 a7bc 416a 4eba
-0.019860357 0.029913044 0.024557687 0.012732043 0.031309087 -0.0015513956 0.0039790715 -0.016108321
-0.0106066335 -0.023851667 -0.010559414 0.029567674 -0.0069696344 -0.022665381 0.0057890313 0.023898864
-0.024672568 0.025214223 0.03215553 0.0010860497 0.0060612196 -0.032388024 0.0092485305 0.007520589
0.01862832 0.007857501 -0.027397325 0.024444655 0.028131671 -0.0039596125 -0.014439101 -0.021932686
-0.0273638 0.004381213 -0.018364184 0.0070721153 0.0046517886 -0.02381424 -0.016685877 -0.00037170577
0.027264575 0.025241828 -0.027374811 -0.03527269 0.023576636 -0.0025533964 0.0060733273 -0.019429274
0.020064237 0.0045742765 -0.015958644 0.008002385 0.010380189 -0.006105605 -0.036327425 -0.027842835
-0.031581096 -0.020559855 -0.0104659945 -0.0013195677 0.014334779 0.006706145 -0.010913534 -0.02088683
0.01495866 -0.0139957545 -0.039057914 -0.03839305 -0.03576293 -0.011681061 -0.03555121 -0.03271979
-0.0059372815 -0.015707722 -0.008777662 -0.02312535 -0.018142365 0.0072708693 -0.012733557 -0.020589834
0.0058432342 -0.035561625 -0.00029421216 -0.029669568 0.010967465 -0.029110348 -0.018407792 0.019299854
0.009622516 0.020839026 -0.0056856754 -0.026279878 0.0012003947 -0.008822796 -0.03742504 0.016880969
-0.032006428 0.03993732 0.03721054 0.013643544 -0.011297823 -0.0032720873 0.01983899 0.0074210255
0.0031691773 0.00224393 0.0153832575 -0.023163745 -0.016474003 -0.032501098 -0.006123018 0.0006342418
-0.035397023 0.013326083 -0.012998001 -0.017888168 0.002079514 0.016865838 -0.0077945874 -0.052155335
-0.012696775 0.005531958 -0.016225694 0.014546794 -0.017580159 0.0049748286 0.0027715296 0.026501512
0.05322434 0.005958497 0.054373182 0.014143288 0.035717838 0.024994303 0.03737238 -0.025238104
0.013073743 0.0020534801 0.009385367 0.0082223965 0.00994834 -0.015231777 -0.035832327 -0.030065728
-0.040035147 -0.027008904 -0.04166324 -0.009171215 -0.01767787 0.015996907 0.0052193548 0.033647016
-0.011167966 -0.0158362 0.0027399485 0.014873674 0.008876685 0.036741853 0.06722043 -0.021898165
-0.030606164 -0.013659723 0.02041888 0.021284418 0.01665013 -0.020409213 0.024261432 -0.0191524
0.003913804 -0.00094989623 -0.021459663 -0.019550363 -0.008370717 0.025056312 -0.01887492 0.0132666305
0.03759445 0.012855344 -0.019075707 0.01000086 0.005622369 0.036890056 0.058913585 0.06508799
0.023775704 -0.016191086 -0.01142635 -0.03292787 -0.015501044 -0.033928026 -0.051509973 0.01450766
-0.04035459 0.020874819 0.032578092 0.0083661415 0.02535935 0.010832569 -0.027862808 0.0354223
-0.004713696 -0.04178315 0.03135309 -0.003979253 -0.023843836 0.028746547 0.028943697 0.06476658
0.026744694 3.2332395e-05 -0.02881531 0.009756744 0.0051724087 -0.0015373002 -0.030979188 -0.023759345
-0.036183175 -0.020238133 -0.07587415 -0.06641521 0.012035713 -0.029690538 -0.009866395 0.013602923
-0.022104459 -0.031447098 0.03476946 0.019700322 -0.027513586 0.027388522 0.04502991 0.056489795
0.036078803 0.06420412 0.061006535 0.030272666 0.0030037097 -0.031845547 0.013100722 0.017773543
0.024360517 -0.043227583 -0.015818749 -0.03883754 -0.055857804 -0.0033069062 -0.016078228 -0.00051359594
0.019588737 0.017220585 -0.003047996 0.025219826 -0.014634864 -0.02606491 -0.02041093 -0.00078741094

fc1.bias f4 [128]
00000000: 1c3a e53c 0424 ccbc 7f31 9c3c 893b 32bb
00000010: 69ce b93b ba89 ea3c 4715 4d3c 76db 7a3c
00000020: 956e bdbc d506 f8bc 5ccf 053d 05a3 46ba
00000030: d211 38bc cc1a bf3c 8c65 be3c 3e26 b3ba
00000040: 55a3 01bb a00d cabb e147 84bc 35fc 7fbc
00000050: f4a6 043d f52d ac3c d8d8 01bd 6825 d6bc
00000060: a55d e83a 2d01 52bc f68d 5dbc 2f00 813c
00000070: 54df c53b 7090 733c 4bda 893b 41f4 943c
00000080: d4e8 02bd 605b 153d 6f39 e03c 96d7 18bd
00000090: 8168 10bd 362c 57bc 9ade 01bd b22c 0bbc
000000a0: e899 a3bb 9eb1 ddbc a300 d9bb cc5d 15bc
000000b0: 6d21 983c 7b64 57bc ee16 813c 6323 bfbc
000000c0: 68df b4bb b312 a53c 35ae ec38 ecaf 1cbc
000000d0: e8ff 443b 7dac 3abc f0d7 9cbb ea3a 05bc
000000e0: b978 73bb b3b9 473c 1d63 e43b dcdc ae3c
000000f0: a72e c53c 3100 023c cce4 54ba 5f67 69bc
00000100: c561 3abd f7ea 03bd 5065 48bd f10f d43c
00000110: df26 213b f425 e73b 42ce bfbb f48f 183c
00000120: 4c09 cebc ba8a 54bb 97d3 86bc eeff 70bc
00000130: 910c 423d 4f36 49bc 28e9 b13c b6e2 373b
00000140: ee87 c83a 748c d4bb 6d35 793d 4cf8 e6bb
00000150: 04cf e93c 02b9 8f3c a260 eabb 3114 04bd
00000160: 4634 a2bc e31b d23c 03c2 57bc 15c5 6cbc
00000170: a16e ebbb 3139 e5bc 46cc b03c 44db 3a3c
00000180: 6397 403c 42b5 3e3c 4e20 6e3c 26f9 e43b
00000190: c467 063b 4662 e13b 733e 173c 5ca5 153d
000001a0: 179c 7f3c b9de 40bb 4dd5 eb3c e02c efbb
000001b0: ec09 e4bc c436 80bc 681c 3abd 5a4a b7bc
000001c0: a8dc be3c 6afc 03bc e506 a8bc 90af 8ebc
000001d0: 4d58 203d 41ce 87bc a884 1a3c cb21 aabc
000001e0: 7e2d d83c 746e 063d a4e1 32bd 2772 6d3c
000001f0: a79b a33c 9faf 21bc ace1 f63c 7cfd f23c
0.02798181 -0.024919517 0.01906657 -0.002719613 0.005670358 0.028630126 0.01251728 0.015311113
-0.023124019 -0.030276695 0.032668456 -0.00075773924 -0.011234717 0.023328207 0.02324178 -0.0013668013
-0.0019781191 -0.006166175 -0.016147556 -0.015624096 0.03238578 0.021018008 -0.03170094 -0.026140884
0.0017728104 -0.012817663 -0.013522616 0.015747158 0.0060385857 0.01486598 0.0042069308 0.018182876
-0.031960323 0.036464095 0.027371136 -0.037314974 -0.035255913 -0.013133099 -0.03170643 -0.008494543
-0.0049927123 -0.027062234 -0.0066223904 -0.009116601 0.018570626 -0.013146515 0.015758004 -0.023332303
-0.005519796 0.020150518 0.000112858055 -0.009563427 0.0030059759 -0.0113936635 -0.004786484 -0.008131722
-0.0037150814 0.01219027 0.006969823 0.021345548 0.024070097 0.007934616 -0.00081212516 -0.014245837
-0.045503397 -0.0322065 -0.048924744 0.025886508 0.002458982 0.007054085 -0.0058534453 0.009311665
-0.025150917 -0.003243132 -0.016458316 -0.014709456 0.047375266 -0.012281015 0.021717623 0.0028058714
0.0015299299 -0.00648647 0.060841966 -0.0070486423 0.028541096 0.017544273 -0.007152633 -0.03224582
-0.019800317 0.025648063 -0.013168815 -0.014451285 -0.007184819 -0.027981373 0.02158178 0.011404816
0.011754843 0.011639895 0.014534069 0.0069877086 0.0020508626 0.00687817 0.009231198 0.036534652
0.01560118 -0.0029429628 0.028788233 -0.0072990507 -0.027836762 -0.015651114 -0.045437247 -0.02237432
0.023298576 -0.008055786 -0.0205111 -0.0174177 0.03914671 -0.016577842 0.009431042 -0.020768067
0.02638888 0.03282018 -0.04367222 0.014492548 0.019971682 -0.0098685315 0.030136906 0.029661886

fc2.weight f4 [64, 128]
00000000: 2d21 5cbd 059a ee3c e498 bf3d f743 cbbd
00000010: fc28 aa3d e883 1d3d 8633 493d 4e53 1cbe
00000020: f493 233d 1b58 423e 16e1 d9bd e45f 38bc
00000030: 90fa a3bd 64f0 f33d bb54 6fbc c63d 99bd
00000040: 73f3 0a3e 4e02 073e fc22 063e 4440 82bd
00000050: 23d8 353d 8064 da3b cf4d afbc 4bbb 723c
00000060: bb25 c63c e8fe 7dbc 6146 dd3c 60c6 98bd
00000070: c43c 19bc a215 3e3d 1492 703d aff1 be3c
00000080: c812 61bc e46c 95bd 5854 e6bc a832 a6bd
00000090: c0e4 213d 1bc2 babc 1b22 4b3d 62e9 6d3d
000000a0: 66e3 4dbc db4c 02be 5c85 323c 15fa 873d
000000b0: 4b97 12bd 7892 03bc 20a2 42bd 2197 45bd
000000c0: a71c aabd 639b ba3d 9d34 0cbe 3c35 ba3d
000000d0: 488f ae3d 5796 fabc 8904 31bd 4316 2f3d
000000e0: c15a 50be 0ec7 3f3c 679e 6ebd c9e8 033d
000000f0: 1f99 113d d68c 203b d553 343e a93e af3d
00000100: c46e 7e3d 931e 06be a06d e13d b202 e73c
00000110: de27 1fbd a23a 3bbd d8f1 87bb 4e73 fd3d
00000120: 2d31 4a3d 26c8 7f3c 2d3c aebc dba3 8dbd
00000130: 2b1e bbbd e49c fc3d 8d52 2e3d be66 7cbd
00000140: d41b 30be 8baf fbbd 4261 4b3c 2c02 c93c
00000150: ba83 b1bd 02ca 8a3d f52a 903d 8a0f 813d
00000160: ee6a 52bd 189c 47be fb46 fabc 4e54 5fbd
00000170: 7591 233e 9a1e 843d 22d0 3ab9 2dcf d0ba
00000180: a8f5 38be 4d2c fa3d f098 51bd 522a 493d
00000190: d3a5 1ebe 1f59 ab3d ed42 703d 012b 733d
000001a0: 42cc c4bd ec62 5fbd 1c19 76bc b00a 1fbd
000001b0: 5d6a 79bd 24b2 113e 5fc7 213e e930 53be
000001c0: 200f b13c 123e e4bb c275 44be 5032 353e
000001d0: aa82 693c 15ee 4f3d 3229 a4bd 46a4 63bd
000001e0: de72 423e e71b b4bd c12e 3dbd 1259 25bd
000001f0: 1378 083e 90e1 87bd edbd e4bd 91ef 34be
00000200: 1d39 463b b8cd a23d 95f5 363b a697 5c3e
00000210: 2f3c 1c3c e3f8 293e 4a72 283e 3d85 c9bd
00000220: 1561 86bd e0b1 c63d 4e14 e9bd e818 2f3d
00000230: 2a4e 9ebd b30b f8bd 0849 1a3d 3740 e4bd
00000240: 3a79 b3bd d73a ed3d cac0 eebd 193a 373c
00000250: 6053 0e3e 91d9 03bd 99b7 3f3d 0d10 9dbc
00000260: a17c c2bd 010a 073e 480b 0ebd 1d25 863d
00000270: 3529 c33d ad42 85bd a199 d23c c963 54bd
00000280: 2c6d 92bc 1646 14bd 0843 983d 5167 85bd
00000290: c49c e73d d5e3 80bd 2f9d 183c 0bb6 52bd
000002a0: 1e9d 68bd 072f 06bb 7c6b 4f3d 57c4 a03d
000002b0: 55ea f1bc 5b61 913d 0f66 183e 0e25 0a3d
000002c0: 7de6 0dbd 4372 f8bc 65ea 04be 0459 63bd
000002d0: 1907 a93d 36a6 203e 7ffb b93d 0bd0 f33d
000002e0: d0a0 1c3e af82 e4bd ae93 3a3d d61c df3c
000002f0: 5070 f3bd e658 b9bd b506 bd3c ac2e 093d
00000300: 921e 8dbd 00a1 c9bd b09e bb3c 0090 f1bd
00000310: cd05 93bd e569 ed3d 913d 9cbd 48b6 ef3c
00000320: 1d0f 20be da49 13bd a30e 7a3d 98f3 183d
00000330: 9efd adbc b99a 19be a649 8b3d 3eab 1dbd
00000340: 3ba5 f8bc 7acf b7bd d0c0 063d c7bb 15be
00000350: b82b a63d 8dff 29bd 1c05 993d b898 b43c
00000360: b0b8 a33d 86ad 16be d861 84bd 7159 20bd
00000370: fb92 2abd 7293 d43d 5e29 f2bc 5661 d73d
00000380: e906 073e 3ea1 153d f866 033c 0024 263d
00000390: fc28 f2bd 4baa 573d 2aa7 423c 7f1d 7cbd
000003a0: d72c fa3d 7110 4ebd 2610 60bd d4c1 c9bd
000003b0: 4bf4 4c3d 591d 17be a088 de3c e915 85bc
000003c0: 143a fcbd 0184 c1bc 144e 863c d44d bb3d
000003d0: 4f07 3f3d 2f0a dc3d 82d4 fd3d 40d0 f13d
000003e0: 645c d6bc 3a44 73bd b9c3 f13d fa2b 053e
000003f0: 0355 f53d a513 52bc 055d 373c 69b7 8abd
-0.053742576 0.029126177 0.093553334 -0.09925073 0.083085984 0.038455874 0.049121402 -0.15266153
0.03993602 0.18978922 -0.10638635 -0.011253331 -0.080067754 0.11911085 -0.014607604 -0.074824855
0.13569431 0.13184473 0.13099283 -0.06359914 0.044395577 0.0066648126 -0.021399407 0.014815162
0.024187913 -0.015502669 0.027011098 -0.07459712 -0.009352867 0.04640735 0.05873306 0.023308603
-0.013737388 -0.0729616 -0.02811639 -0.08115131 0.039524794 -0.022797635 0.049593072 0.0580839
-0.012566423 -0.1272463 0.010896053 0.06639496 -0.035788815 -0.008030526 -0.047517896 -0.04823983
-0.08306246 0.09111669 -0.13691945 0.09092185 0.085234225 -0.030589266 -0.043217216 0.04274584
-0.2034712 0.011705173 -0.058256533 0.032204423 0.03554642 0.0024498007 0.17610104 0.08556873
0.062117353 -0.130976 0.110072374 0.028199527 -0.03885638 -0.045710213 -0.004148703 0.12375508
0.049363304 0.015611684 -0.021268928 -0.069160186 -0.091366135 0.12334612 0.042559195 -0.06162142
-0.17198116 -0.122893415 0.012413325 0.024537168 -0.08667703 0.06776811 0.070394434 0.06301792
-0.051371507 -0.19493139 -0.030551424 -0.05452376 0.15973456 0.06451149 -0.00017815878 -0.0015930884
-0.1806246 0.12215481 -0.051171243 0.049112625 -0.15492944 0.08366608 0.058657575 0.059367184
-0.096092716 -0.0545377 -0.015020635 -0.03882855 -0.06089245 0.14228112 0.1579871 -0.20624126
0.021613657 -0.006965407 -0.19185546 0.17694974 0.014252344 0.050764162 -0.0801567 -0.055576585
0.18989131 -0.087943844 -0.046187166 -0.040368147 0.13327055 -0.066348195 -0.11169038 -0.17669512
0.0030246445 0.07949394 0.0027917374 0.21542224 0.009535833 0.16598849 0.16449848 -0.09839866
-0.06561486 0.09701896 -0.11380826 0.04274836 -0.07729752 -0.121116064 0.037667304 -0.111450605
-0.087633565 0.115834884 -0.11657865 0.011183285 0.13898993 -0.03218991 0.04680595 -0.019172693
-0.09496427 0.1318741 -0.034678727 0.065500475 0.09529344 -0.06506858 0.025708022 -0.051852975
-0.017874323 -0.03619965 0.0743466 -0.06513847 0.113091975 -0.062934555 0.009314819 -0.05144314
-0.056790464 -0.0020474808 0.050639614 0.07849949 -0.029530684 0.07098647 0.14882682 0.033726744
-0.03464364 -0.030327922 -0.1298004 -0.055504814 0.08253307 0.15688404 0.09081172 0.119049154
0.1529572 -0.111577384 0.045550995 0.02723543 -0.11886656 -0.09050159 0.023074487 0.033491775
-0.068905964 -0.098451614 0.022902817 -0.11795044 -0.07178841 0.115924634 -0.0762893 0.029261723
-0.15630765 -0.035959102 0.061049115 0.037341684 -0.021239098 -0.15000428 0.06801157 -0.038493387
-0.030352226 -0.0897512 0.032898724 -0.14622413 0.081138074 -0.041503478 0.07471678 0.022045478
0.07994211 -0.14714631 -0.06463975 -0.039147798 -0.041644078 0.103796855 -0.029560741 0.10516612
0.1318623 0.036530726 0.008020155 0.040561676 -0.118242234 0.05265264 0.011880675 -0.061551567
0.12215584 -0.05030865 -0.0547029 -0.09851423 0.050037663 -0.14757289 0.027164757 -0.0162458
-0.12315765 -0.023622515 0.016394652 0.09145704 0.04663783 0.1074413 0.12394048 0.11807299
-0.026167102 -0.059391238 0.11804909 0.13005057 0.11979105 -0.012822066 0.011191611 -0.06773264

fc2.bias f4 [64]
00000000: a114 9c3d 7e43 833d 50a0 fe3d 75b3 a9bd
00000010: 1d3d 5f3c 63fa fd3d 6e5c 933d bd2b b3bd
00000020: 0cec 10ba 0433 abbd 12ea 81bc 034e 9fbc
00000030: 9b2b 533d 684a dabc a378 5dbd 3dfa b1bd
00000040: 3e2a 8abc cd28 013e 8036 c4ba 9337 e63c
00000050: d9a2 5d3d f76b 0ebd f63d 293d c279 e33d
00000060: 1e97 d53d a56a 1a3d d59c 0dbd 2d82 293d
00000070: e84a 2ebd 527a 5dbd 022f e03c 8735 443d
00000080: 9af7 25bc 7e78 843d e6f7 9e3c e6d3 8cbd
00000090: 3580 09bd 6796 6a3c 6e9d 473d 3d0f 973d
000000a0: b9b7 68bd 8065 e63c 3cf5 9c3b bc0a d6bb
000000b0: 2980 1e3d 1984 af3d c1c5 aebc 2048 cbba
000000c0: 2344 903d b0f5 c9bc 2559 7ebd 5a4e 983d
000000d0: 0643 ab3c c652 d8bc 90a8 663c 4cf7 47bd
000000e0: a204 2ebd 39f3 9ebc 5e08 093e 21d6 593d
000000f0: 3261 9f3d 4b75 a0bc ec96 a73d 8a5c 5dbd
0.07621122 0.064093575 0.12432921 -0.08286182 0.01362541 0.12401273 0.07195364 -0.08748577
-0.0005528338 -0.0835934 -0.015858684 -0.019446379 0.051555257 -0.026646808 -0.054070126 -0.08690307
-0.016865846 0.1261322 -0.0014969856 0.028102672 0.05411038 -0.034770932 0.041318856 0.11107208
0.10429214 0.03769936 -0.034573395 0.04138391 -0.042551905 -0.054071732 0.027366165 0.04790261
-0.010129834 0.064682946 0.019405317 -0.06876354 -0.033569533 0.014318085 0.04873412 0.07375953
-0.056815837 0.02812457 0.0047899764 -0.0065320414 0.03869644 0.085701175 -0.02133453 -0.0015509166
0.07044246 -0.024653286 -0.062096734 0.074368194 0.020905983 -0.026406657 0.014078274 -0.048819825
-0.042484887 -0.019403087 0.13382098 0.053182725 0.077822104 -0.01958718 0.08183083 -0.05404333

fc3.weight f4 [10, 64]
00000000: 5ea6 6cbd 0f57 1dbe 59fb fe3c e1e4 f73e
00000010: c9c5 bdbe 1abe 9cbe d8d2 92be 83aa 2fbe
00000020: 45b4 8a3e 0bfc 14be cb39 99be 36e4 0b3e
00000030: 28f6 7b3d df40 073e ba55 573e a71b c03d
00000040: 63b6 ac3e 07da 0abe 050d 98be d972 6e3e
00000050: fd36 06bd ad40 903e b6fc eebd 5b00 babe
00000060: 24b6 a73e 78e3 cc3a 8df5 a0bc 904c fbbd
00000070: c68b f9bd dc5d ea3d f77e d53d 25be 7ebd
00000080: 341d 593e eb1e 793c 1115 113e e81e df3b
00000090: 76be b3be 2248 80be 16f0 ce3e b06d 473d
000000a0: 2f70 893d 6c3a 04be e810 ec3c a5fc a03e
000000b0: ecc6 a73d 4ad7 34be cabf f23b 6408 973e
000000c0: 8c2a 823e 2216 01be 561c 17bd 077d 2c3e
000000d0: e158 15be 1c6f 16be bd9f cfbc 693e 0dbe
000000e0: 721d 91bd 0342 673e 4f42 6c3c 5016 66bd
000000f0: 5980 01bf 65af ebbd 353b f73c 556c 4ebe
00000100: 4ebe f13e 6062 b0be 0e5f e3bd f495 70be
00000110: 4630 58be 57d2 99be 4c9f 933e 6ae4 43bd
00000120: 664e fe3b 608c d53d 94b5 d13d 9320 f5bd
00000130: 51cb 633e 2eba 91be 3e0f f83d f495 293e
00000140: e9c2 a4bc c703 82be 4d10 1dbe e117 71be
00000150: 8166 863e 69fc d73d 0bbc 2ebe 94a0 84bd
00000160: 9e56 3ebd 1dc5 86be 7b41 3dbd 6299 91be
00000170: 3534 4a3d 1000 423e 5de2 ea3d 217a dcbd
00000180: 88c5 02be 0cce 29bd 1ab8 a5bc 59cc f13d
00000190: 0cdf 513e 981c 07be 7209 48be 4991 20be
000001a0: 10fd 6a3e 8de6 92bc b189 6f3d 5b12 163d
000001b0: 7488 8bbd 9c9a b53e 7b41 6f3d c858 9dbe
000001c0: b18d 80bc b224 bf3e 5f63 133e 683d 4a3e
000001d0: b548 58be 23c3 473d 02e4 a43c a374 c43d
000001e0: 6187 2dbe e5cf fcbc c611 5fbe 521a 7dbd
000001f0: fe96 943e dc4b 8d3e dd90 0d3e 257a 263f
00000200: 90d3 b3bd 9167 e4bd b8e1 0fbe 2760 6f3e
00000210: 232d e8be 78a5 5e3e c6ed 973e 5307 703d
00000220: 4fbb 643e bf1f 813e 60ce a03e 352a 8ebd
00000230: 2080 b83e 679e ba3e 966d 22bd 5086 0abd
00000240: 70d1 c93e d138 81be 4c18 a63e 45c6 f1bd
00000250: ea30 1abe 9e98 d8bd 5ccf 273e b407 99be
00000260: 8033 493e 46b7 563e fda2 5b3e c35d 863e
00000270: 536a fbbe 6c7c a3bc 2cc5 aabd caf3 813d
00000280: 487b 053e 30a7 24be bcfc e63d 0380 21be
00000290: f3a7 2fbc 685b 403e 1461 7fbe 066d b8be
000002a0: 3b31 3cbe 25ab 593e dd12 123d c29a 9dbe
000002b0: 7c36 253d 7c2d 83bb 61b7 ae3d 2bdf 353e
000002c0: 49b0 833e cec7 b0bd 108e 0f3d 8e6a 84be
000002d0: 9fef 9f3c 1745 683e 265b 6bbe a835 c5be
000002e0: 6524 0e3e 4e91 78be b4af 91be 6c4c cd3d
000002f0: ed81 b13d 534a 0b3c 669c 953e 9990 ce3d
00000300: c63a 89be 1435 f23d 201f 87be c880 7a3e
00000310: 4edb f83e 3280 66be 2a27 a8bd 0095 19bd
00000320: 5c21 3e3e 6d4c a83e ff6a 923e cf41 833c
00000330: 3cb0 02be 5730 e2bc 6ee7 21be 2670 a6bd
00000340: 887c be3e 82ee 963e 539e 703e 92a3 913e
00000350: 2052 3cbd c49b 54be 17ea 90be 7302 b53a
00000360: d64a a1be 064a babd 2e61 363e f2ff 19be
00000370: 1d00 83bd 4289 7fbd 16ba a53b f2f3 443e
00000380: de71 25be f962 3f3e 0901 10be 4e01 3e3e
00000390: 3f61 053f aac4 80be 6b3e 8abd 2077 3e3e
000003a0: 8001 11be 0b4b 27be 13c0 abbd 4d50 ae3d
000003b0: 102e 4b3d f2fa d7be 3734 d9bd 671b 543d
000003c0: 2d28 3fbe 4b86 b33c 9a0a 1dbd 0af9 43bb
000003d0: c8d9 293d 53b1 313e be09 59be a0ef a43d
000003e0: b87b d2bc dfbd 483d 23d2 41be 0d28 2dbe
000003f0: ed1f d63e 5caa 7b3e 61f7 79bd b9d0 09bf
-0.057775848 -0.15365241 0.031125711 0.48416808 -0.3706496 -0.30613786 -0.28676486 -0.17154889
0.2709066 -0.14549272 -0.29926905 0.13661274 0.06151405 0.1320834 0.21028796 0.09380274
0.337329 -0.13559733 -0.29697433 0.23285998 -0.032767285 0.28174344 -0.116692945 -0.36328396
0.3275615 0.0015631756 -0.019648338 -0.122704625 -0.12184863 0.114436835 0.10424607 -0.062193055
0.21202546 0.015205125 0.14168192 0.0068091042 -0.35106248 -0.25055033 0.40417546 0.04868859
0.067108504 -0.12912911 0.028816655 0.31442752 0.08192238 -0.17660251 0.007408117 0.2949859
0.25423086 -0.12606099 -0.036892258 0.16844569 -0.14584686 -0.14690822 -0.025344724 -0.13793339
-0.070856944 0.22583775 0.014420106 -0.056173623 -0.5058647 -0.11508063 0.0301796 -0.20158513
0.47215503 -0.34450054 -0.111021146 -0.23494703 -0.21112165 -0.3004329 0.2883247 -0.047825254
0.0077608107 0.10427165 0.102397114 -0.11969104 0.22245528 -0.28462356 0.12112282 0.16561109
-0.020112472 -0.25393507 -0.1533825 -0.23544265 0.2625008 0.1054619 -0.1706392 -0.0647594
-0.046469323 -0.2632226 -0.046205025 -0.28437334 0.049366195 0.18945336 0.114689566 -0.10765482
-0.12770665 -0.041456267 -0.020229388 0.11806554 0.20495242 -0.13194501 -0.19534853 -0.15680422
0.22948098 -0.0179322 0.058480922 0.0366386 -0.06813136 0.3546952 0.058412056 -0.30731797
-0.015692564 0.37332684 0.14393376 0.19749987 -0.21121486 0.04877008 0.020128254 0.09592559
-0.16946174 -0.03086085 -0.21784124 -0.06179268 0.29021448 0.2759694 0.13824792 0.6503013
-0.08780587 -0.11152566 -0.14050949 0.23376523 -0.45346937 0.21742809 0.29673594 0.058600735
0.22337078 0.25219533 0.31407452 -0.06941644 0.36035252 0.36448976 -0.03965529 -0.033819497
0.394176 -0.2523866 0.32440412 -0.11805395 -0.15057722 -0.105759844 0.16387695 -0.2988869
0.19648552 0.20968351 0.21448894 0.2624341 -0.49104556 -0.01995679 -0.08338389 0.06345327
0.1303531 -0.16079402 0.11278674 -0.15771489 -0.010721195 0.18784869 -0.24939376 -0.36020678
-0.18378155 0.21256693 0.03566252 -0.30782133 0.040335163 -0.004003225 0.085310705 0.17760913
0.25720432 -0.0863186 0.03504759 -0.25862545 0.01952344 0.22682606 -0.22983989 -0.385175
0.13881071 -0.2427418 -0.28454363 0.10024342 0.086673595 0.008501607 0.29220885 0.100861736
-0.26802653 0.1182653 -0.26390934 0.24463189 0.48604816 -0.2250984 -0.08210595 -0.037495613
0.18567413 0.32870808 0.28597257 0.01602259 -0.1276254 -0.02761094 -0.1581094 -0.08126859
0.37204385 0.29478842 0.23497896 0.28445107 -0.045976758 -0.20762545 -0.28303596 0.0013809934
-0.31502408 -0.0909615 0.17810509 -0.15039042 -0.06396506 -0.06238676 0.0050575836 0.19233683
-0.16156718 0.18690099 -0.14062895 0.18555185 0.5210151 -0.25150043 -0.067501865 0.1860013
-0.14160728 -0.1633722 -0.083862446 0.0851141 0.049604475 -0.42183644 -0.10605662 0.051783945
-0.1866767 0.021914622 -0.03834019 -0.0029903078 0.041467458 0.173528 -0.21195123 0.08053517
-0.02569376 0.0490092 -0.18927817 -0.1690981 0.41821232 0.24576706 -0.061026935 -0.5383411

fc3.bias f4 [10]
00000000: 7645 80bd 15c7 77bd e8c1 acbd e732 b6bd
00000010: 3649 3a3e ea53 743d 72f7 57bd 1006 b9bc
00000020: 325c 893d b05c 093c
-0.062632486 -0.060492594 -0.08435422 -0.088964276 0.1819199 0.05965034 -0.052726217 -0.022585899
0.06707038 0.008383915
